…
I0220 00:38:27.930327 31843 net.cpp:294] The NetState phase (0) differed from the phase (1) specified by a rule in layer accuracy
I0220 00:38:27.930511 31843 net.cpp:51] Initializing net from parameters: 
name: "multi-class-alexnet"
state {
  phase: TRAIN
  level: 0
  stage: ""
}
layer {
  name: "data"
  type: "ImageData"
  top: "data"
  top: "label"
  include {
    phase: TRAIN
  }
  transform_param {
    mirror: true
    crop_size: 227
    mean_file: "../../data/ilsvrc12/imagenet_mean.binaryproto"
  }
  image_data_param {
    source: "file-list.txt"
    batch_size: 10
    new_height: 256
    new_width: 256
    label_size: 4
  }
}
layer {
  name: "conv1"
  type: "Convolution"
  bottom: "data"
  top: "conv1"
  param {
    lr_mult: 1
    decay_mult: 1
  }
  param {
    lr_mult: 2
    decay_mult: 0
  }
  convolution_param {
    num_output: 96
    kernel_size: 11
    stride: 4
    weight_filler {
      type: "gaussian"
      std: 0.01
    }
    bias_filler {
      type: "constant"
      value: 0
    }
  }
}
layer {
  name: "relu1"
  type: "ReLU"
  bottom: "conv1"
  top: "conv1"
}
layer {
  name: "pool1"
  type: "Pooling"
  bottom: "conv1"
  top: "pool1"
  pooling_param {
    pool: MAX
    kernel_size: 3
    stride: 2
  }
}
layer {
  name: "norm1"
  type: "LRN"
  bottom: "pool1"
  top: "norm1"
  lrn_param {
    local_size: 5
    alpha: 0.0001
    beta: 0.75
  }
}
layer {
  name: "conv2"
  type: "Convolution"
  bottom: "norm1"
  top: "conv2"
  param {
    lr_mult: 1
    decay_mult: 1
  }
  param {
    lr_mult: 2
    decay_mult: 0
  }
  convolution_param {
    num_output: 256
    pad: 2
    kernel_size: 5
    group: 2
    weight_filler {
      type: "gaussian"
      std: 0.01
    }
    bias_filler {
      type: "constant"
      value: 1
    }
  }
}
layer {
  name: "relu2"
  type: "ReLU"
  bottom: "conv2"
  top: "conv2"
}
layer {
  name: "pool2"
  type: "Pooling"
  bottom: "conv2"
  top: "pool2"
  pooling_param {
    pool: MAX
    kernel_size: 3
    stride: 2
  }
}
layer {
  name: "norm2"
  type: "LRN"
  bottom: "pool2"
  top: "norm2"
  lrn_param {
    local_size: 5
    alpha: 0.0001
    beta: 0.75
  }
}
layer {
  name: "conv3"
  type: "Convolution"
  bottom: "norm2"
  top: "conv3"
  param {
    lr_mult: 1
    decay_mult: 1
  }
  param {
    lr_mult: 2
    decay_mult: 0
  }
  convolution_param {
    num_output: 384
    pad: 1
    kernel_size: 3
    weight_filler {
      type: "gaussian"
      std: 0.01
    }
    bias_filler {
      type: "constant"
      value: 0
    }
  }
}
layer {
  name: "relu3"
  type: "ReLU"
  bottom: "conv3"
  top: "conv3"
}
layer {
  name: "conv4"
  type: "Convolution"
  bottom: "conv3"
  top: "conv4"
  param {
    lr_mult: 1
    decay_mult: 1
  }
  param {
    lr_mult: 2
    decay_mult: 0
  }
  convolution_param {
    num_output: 384
    pad: 1
    kernel_size: 3
    group: 2
    weight_filler {
      type: "gaussian"
      std: 0.01
    }
    bias_filler {
      type: "constant"
      value: 1
    }
  }
}
layer {
  name: "relu4"
  type: "ReLU"
  bottom: "conv4"
  top: "conv4"
}
layer {
  name: "conv5"
  type: "Convolution"
  bottom: "conv4"
  top: "conv5"
  param {
    lr_mult: 1
    decay_mult: 1
  }
  param {
    lr_mult: 2
    decay_mult: 0
  }
  convolution_param {
    num_output: 256
    pad: 1
    kernel_size: 3
    group: 2
    weight_filler {
      type: "gaussian"
      std: 0.01
    }
    bias_filler {
      type: "constant"
      value: 1
    }
  }
}
layer {
  name: "relu5"
  type: "ReLU"
  bottom: "conv5"
  top: "conv5"
}
layer {
  name: "pool5"
  type: "Pooling"
  bottom: "conv5"
  top: "pool5"
  pooling_param {
    pool: MAX
    kernel_size: 3
    stride: 2
  }
}
layer {
  name: "fc6"
  type: "InnerProduct"
  bottom: "pool5"
  top: "fc6"
  param {
    lr_mult: 1
    decay_mult: 1
  }
  param {
    lr_mult: 2
    decay_mult: 0
  }
  inner_product_param {
    num_output: 4096
    weight_filler {
      type: "gaussian"
      std: 0.005
    }
    bias_filler {
      type: "constant"
      value: 1
    }
  }
}
layer {
  name: "relu6"
  type: "ReLU"
  bottom: "fc6"
  top: "fc6"
}
layer {
  name: "drop6"
  type: "Dropout"
  bottom: "fc6"
  top: "fc6"
  dropout_param {
    dropout_ratio: 0.5
  }
}
layer {
  name: "fc7"
  type: "InnerProduct"
  bottom: "fc6"
  top: "fc7"
  param {
    lr_mult: 1
    decay_mult: 1
  }
  param {
    lr_mult: 2
    decay_mult: 0
  }
  inner_product_param {
    num_output: 4096
    weight_filler {
      type: "gaussian"
      std: 0.005
    }
    bias_filler {
      type: "constant"
      value: 1
    }
  }
}
layer {
  name: "relu7"
  type: "ReLU"
  bottom: "fc7"
  top: "fc7"
}
layer {
  name: "drop7"
  type: "Dropout"
  bottom: "fc7"
  top: "fc7"
  dropout_param {
    dropout_ratio: 0.5
  }
}
layer {
  name: "latent"
  type: "InnerProduct"
  bottom: "fc7"
  top: "latent"
  param {
    lr_mult: 1
    decay_mult: 1
  }
  param {
    lr_mult: 2
    decay_mult: 0
  }
  inner_product_param {
    num_output: 48
    weight_filler {
      type: "gaussian"
      std: 0.01
    }
    bias_filler {
      type: "constant"
      value: 0
    }
  }
}
layer {
  name: "latent_sigmoid"
  type: "Sigmoid"
  bottom: "latent"
  top: "latent_sigmoid"
}
layer {
  name: "fc9"
  type: "InnerProduct"
  bottom: "latent_sigmoid"
  top: "fc9"
  param {
    lr_mult: 10
    decay_mult: 1
  }
  param {
    lr_mult: 20
    decay_mult: 0
  }
  inner_product_param {
    num_output: 4
    weight_filler {
      type: "gaussian"
      std: 0.2
    }
    bias_filler {
      type: "constant"
      value: 0
    }
  }
}
layer {
  name: "loss"
  type: "MultiLabelSigmoidLoss"
  bottom: "fc9"
  bottom: "label"
  top: "loss: multi-class-classfication-error"
  loss_weight: 1
}
I0220 00:38:27.930658 31843 layer_factory.hpp:77] Creating layer data
I0220 00:38:27.930698 31843 net.cpp:84] Creating Layer data
I0220 00:38:27.930706 31843 net.cpp:380] data -> data
I0220 00:38:27.930734 31843 net.cpp:380] data -> label
I0220 00:38:27.930750 31843 data_transformer.cpp:25] Loading mean file from: ../../data/ilsvrc12/imagenet_mean.binaryproto
I0220 00:38:27.933322 31843 image_data_layer.cpp:43] Opening file file-list.txt
I0220 00:38:27.933338 31843 io.cpp:296] Opening file file-list.txt
I0220 00:38:27.933421 31843 io.cpp:321] Read 30 images with 4 labels
I0220 00:38:27.933432 31843 image_data_layer.cpp:71] A total of 30 images.
I0220 00:38:27.936849 31843 image_data_layer.cpp:98] output data size: 10,3,227,227
I0220 00:38:27.949101 31843 net.cpp:122] Setting up data
I0220 00:38:27.949128 31843 net.cpp:129] Top shape: 10 3 227 227 (1545870)
I0220 00:38:27.949134 31843 net.cpp:129] Top shape: 10 4 1 1 (40)
I0220 00:38:27.949139 31843 net.cpp:137] Memory required for data: 6183640
I0220 00:38:27.949147 31843 layer_factory.hpp:77] Creating layer conv1
I0220 00:38:27.949169 31843 net.cpp:84] Creating Layer conv1
I0220 00:38:27.949177 31843 net.cpp:406] conv1 <- data
I0220 00:38:27.949190 31843 net.cpp:380] conv1 -> conv1
I0220 00:38:27.952033 31843 net.cpp:122] Setting up conv1
I0220 00:38:27.952050 31843 net.cpp:129] Top shape: 10 96 55 55 (2904000)
I0220 00:38:27.952055 31843 net.cpp:137] Memory required for data: 17799640
I0220 00:38:27.952070 31843 layer_factory.hpp:77] Creating layer relu1
I0220 00:38:27.952080 31843 net.cpp:84] Creating Layer relu1
I0220 00:38:27.952085 31843 net.cpp:406] relu1 <- conv1
I0220 00:38:27.952091 31843 net.cpp:367] relu1 -> conv1 (in-place)
I0220 00:38:27.952100 31843 net.cpp:122] Setting up relu1
I0220 00:38:27.952107 31843 net.cpp:129] Top shape: 10 96 55 55 (2904000)
I0220 00:38:27.952126 31843 net.cpp:137] Memory required for data: 29415640
I0220 00:38:27.952131 31843 layer_factory.hpp:77] Creating layer pool1
I0220 00:38:27.952142 31843 net.cpp:84] Creating Layer pool1
I0220 00:38:27.952147 31843 net.cpp:406] pool1 <- conv1
I0220 00:38:27.952154 31843 net.cpp:380] pool1 -> pool1
I0220 00:38:27.952208 31843 net.cpp:122] Setting up pool1
I0220 00:38:27.952219 31843 net.cpp:129] Top shape: 10 96 27 27 (699840)
I0220 00:38:27.952222 31843 net.cpp:137] Memory required for data: 32215000
I0220 00:38:27.952226 31843 layer_factory.hpp:77] Creating layer norm1
I0220 00:38:27.952235 31843 net.cpp:84] Creating Layer norm1
I0220 00:38:27.952239 31843 net.cpp:406] norm1 <- pool1
I0220 00:38:27.952245 31843 net.cpp:380] norm1 -> norm1
I0220 00:38:27.952275 31843 net.cpp:122] Setting up norm1
I0220 00:38:27.952282 31843 net.cpp:129] Top shape: 10 96 27 27 (699840)
I0220 00:38:27.952286 31843 net.cpp:137] Memory required for data: 35014360
I0220 00:38:27.952291 31843 layer_factory.hpp:77] Creating layer conv2
I0220 00:38:27.952301 31843 net.cpp:84] Creating Layer conv2
I0220 00:38:27.952304 31843 net.cpp:406] conv2 <- norm1
I0220 00:38:27.952311 31843 net.cpp:380] conv2 -> conv2
I0220 00:38:27.962882 31843 net.cpp:122] Setting up conv2
I0220 00:38:27.962905 31843 net.cpp:129] Top shape: 10 256 27 27 (1866240)
I0220 00:38:27.962910 31843 net.cpp:137] Memory required for data: 42479320
I0220 00:38:27.962924 31843 layer_factory.hpp:77] Creating layer relu2
I0220 00:38:27.962934 31843 net.cpp:84] Creating Layer relu2
I0220 00:38:27.962940 31843 net.cpp:406] relu2 <- conv2
I0220 00:38:27.962947 31843 net.cpp:367] relu2 -> conv2 (in-place)
I0220 00:38:27.962960 31843 net.cpp:122] Setting up relu2
I0220 00:38:27.962966 31843 net.cpp:129] Top shape: 10 256 27 27 (1866240)
I0220 00:38:27.962970 31843 net.cpp:137] Memory required for data: 49944280
I0220 00:38:27.962975 31843 layer_factory.hpp:77] Creating layer pool2
I0220 00:38:27.962981 31843 net.cpp:84] Creating Layer pool2
I0220 00:38:27.962986 31843 net.cpp:406] pool2 <- conv2
I0220 00:38:27.962991 31843 net.cpp:380] pool2 -> pool2
I0220 00:38:27.963030 31843 net.cpp:122] Setting up pool2
I0220 00:38:27.963037 31843 net.cpp:129] Top shape: 10 256 13 13 (432640)
I0220 00:38:27.963042 31843 net.cpp:137] Memory required for data: 51674840
I0220 00:38:27.963045 31843 layer_factory.hpp:77] Creating layer norm2
I0220 00:38:27.963054 31843 net.cpp:84] Creating Layer norm2
I0220 00:38:27.963062 31843 net.cpp:406] norm2 <- pool2
I0220 00:38:27.963068 31843 net.cpp:380] norm2 -> norm2
I0220 00:38:27.963096 31843 net.cpp:122] Setting up norm2
I0220 00:38:27.963104 31843 net.cpp:129] Top shape: 10 256 13 13 (432640)
I0220 00:38:27.963107 31843 net.cpp:137] Memory required for data: 53405400
I0220 00:38:27.963111 31843 layer_factory.hpp:77] Creating layer conv3
I0220 00:38:27.963121 31843 net.cpp:84] Creating Layer conv3
I0220 00:38:27.963127 31843 net.cpp:406] conv3 <- norm2
I0220 00:38:27.963135 31843 net.cpp:380] conv3 -> conv3
I0220 00:38:27.991679 31843 net.cpp:122] Setting up conv3
I0220 00:38:27.991703 31843 net.cpp:129] Top shape: 10 384 13 13 (648960)
I0220 00:38:27.991709 31843 net.cpp:137] Memory required for data: 56001240
I0220 00:38:27.991724 31843 layer_factory.hpp:77] Creating layer relu3
I0220 00:38:27.991734 31843 net.cpp:84] Creating Layer relu3
I0220 00:38:27.991742 31843 net.cpp:406] relu3 <- conv3
I0220 00:38:27.991750 31843 net.cpp:367] relu3 -> conv3 (in-place)
I0220 00:38:27.991760 31843 net.cpp:122] Setting up relu3
I0220 00:38:27.991765 31843 net.cpp:129] Top shape: 10 384 13 13 (648960)
I0220 00:38:27.991770 31843 net.cpp:137] Memory required for data: 58597080
I0220 00:38:27.991773 31843 layer_factory.hpp:77] Creating layer conv4
I0220 00:38:27.991785 31843 net.cpp:84] Creating Layer conv4
I0220 00:38:27.991788 31843 net.cpp:406] conv4 <- conv3
I0220 00:38:27.991796 31843 net.cpp:380] conv4 -> conv4
I0220 00:38:28.013273 31843 net.cpp:122] Setting up conv4
I0220 00:38:28.013294 31843 net.cpp:129] Top shape: 10 384 13 13 (648960)
I0220 00:38:28.013322 31843 net.cpp:137] Memory required for data: 61192920
I0220 00:38:28.013334 31843 layer_factory.hpp:77] Creating layer relu4
I0220 00:38:28.013344 31843 net.cpp:84] Creating Layer relu4
I0220 00:38:28.013348 31843 net.cpp:406] relu4 <- conv4
I0220 00:38:28.013355 31843 net.cpp:367] relu4 -> conv4 (in-place)
I0220 00:38:28.013370 31843 net.cpp:122] Setting up relu4
I0220 00:38:28.013375 31843 net.cpp:129] Top shape: 10 384 13 13 (648960)
I0220 00:38:28.013380 31843 net.cpp:137] Memory required for data: 63788760
I0220 00:38:28.013383 31843 layer_factory.hpp:77] Creating layer conv5
I0220 00:38:28.013394 31843 net.cpp:84] Creating Layer conv5
I0220 00:38:28.013401 31843 net.cpp:406] conv5 <- conv4
I0220 00:38:28.013407 31843 net.cpp:380] conv5 -> conv5
I0220 00:38:28.027730 31843 net.cpp:122] Setting up conv5
I0220 00:38:28.027751 31843 net.cpp:129] Top shape: 10 256 13 13 (432640)
I0220 00:38:28.027756 31843 net.cpp:137] Memory required for data: 65519320
I0220 00:38:28.027768 31843 layer_factory.hpp:77] Creating layer relu5
I0220 00:38:28.027777 31843 net.cpp:84] Creating Layer relu5
I0220 00:38:28.027782 31843 net.cpp:406] relu5 <- conv5
I0220 00:38:28.027789 31843 net.cpp:367] relu5 -> conv5 (in-place)
I0220 00:38:28.027798 31843 net.cpp:122] Setting up relu5
I0220 00:38:28.027803 31843 net.cpp:129] Top shape: 10 256 13 13 (432640)
I0220 00:38:28.027817 31843 net.cpp:137] Memory required for data: 67249880
I0220 00:38:28.027822 31843 layer_factory.hpp:77] Creating layer pool5
I0220 00:38:28.027829 31843 net.cpp:84] Creating Layer pool5
I0220 00:38:28.027833 31843 net.cpp:406] pool5 <- conv5
I0220 00:38:28.027840 31843 net.cpp:380] pool5 -> pool5
I0220 00:38:28.027878 31843 net.cpp:122] Setting up pool5
I0220 00:38:28.027884 31843 net.cpp:129] Top shape: 10 256 6 6 (92160)
I0220 00:38:28.027889 31843 net.cpp:137] Memory required for data: 67618520
I0220 00:38:28.027892 31843 layer_factory.hpp:77] Creating layer fc6
I0220 00:38:28.027904 31843 net.cpp:84] Creating Layer fc6
I0220 00:38:28.027907 31843 net.cpp:406] fc6 <- pool5
I0220 00:38:28.027915 31843 net.cpp:380] fc6 -> fc6
I0220 00:38:29.225499 31843 net.cpp:122] Setting up fc6
I0220 00:38:29.225567 31843 net.cpp:129] Top shape: 10 4096 (40960)
I0220 00:38:29.225589 31843 net.cpp:137] Memory required for data: 67782360
I0220 00:38:29.225610 31843 layer_factory.hpp:77] Creating layer relu6
I0220 00:38:29.225631 31843 net.cpp:84] Creating Layer relu6
I0220 00:38:29.225646 31843 net.cpp:406] relu6 <- fc6
I0220 00:38:29.225663 31843 net.cpp:367] relu6 -> fc6 (in-place)
I0220 00:38:29.225675 31843 net.cpp:122] Setting up relu6
I0220 00:38:29.225682 31843 net.cpp:129] Top shape: 10 4096 (40960)
I0220 00:38:29.225687 31843 net.cpp:137] Memory required for data: 67946200
I0220 00:38:29.225690 31843 layer_factory.hpp:77] Creating layer drop6
I0220 00:38:29.225705 31843 net.cpp:84] Creating Layer drop6
I0220 00:38:29.225714 31843 net.cpp:406] drop6 <- fc6
I0220 00:38:29.225720 31843 net.cpp:367] drop6 -> fc6 (in-place)
I0220 00:38:29.225752 31843 net.cpp:122] Setting up drop6
I0220 00:38:29.225760 31843 net.cpp:129] Top shape: 10 4096 (40960)
I0220 00:38:29.225765 31843 net.cpp:137] Memory required for data: 68110040
I0220 00:38:29.225769 31843 layer_factory.hpp:77] Creating layer fc7
I0220 00:38:29.225778 31843 net.cpp:84] Creating Layer fc7
I0220 00:38:29.225800 31843 net.cpp:406] fc7 <- fc6
I0220 00:38:29.225810 31843 net.cpp:380] fc7 -> fc7
I0220 00:38:29.758229 31843 net.cpp:122] Setting up fc7
I0220 00:38:29.758254 31843 net.cpp:129] Top shape: 10 4096 (40960)
I0220 00:38:29.758260 31843 net.cpp:137] Memory required for data: 68273880
I0220 00:38:29.758270 31843 layer_factory.hpp:77] Creating layer relu7
I0220 00:38:29.758281 31843 net.cpp:84] Creating Layer relu7
I0220 00:38:29.758287 31843 net.cpp:406] relu7 <- fc7
I0220 00:38:29.758296 31843 net.cpp:367] relu7 -> fc7 (in-place)
I0220 00:38:29.758306 31843 net.cpp:122] Setting up relu7
I0220 00:38:29.758311 31843 net.cpp:129] Top shape: 10 4096 (40960)
I0220 00:38:29.758314 31843 net.cpp:137] Memory required for data: 68437720
I0220 00:38:29.758337 31843 layer_factory.hpp:77] Creating layer drop7
I0220 00:38:29.758344 31843 net.cpp:84] Creating Layer drop7
I0220 00:38:29.758348 31843 net.cpp:406] drop7 <- fc7
I0220 00:38:29.758354 31843 net.cpp:367] drop7 -> fc7 (in-place)
I0220 00:38:29.758380 31843 net.cpp:122] Setting up drop7
I0220 00:38:29.758386 31843 net.cpp:129] Top shape: 10 4096 (40960)
I0220 00:38:29.758390 31843 net.cpp:137] Memory required for data: 68601560
I0220 00:38:29.758395 31843 layer_factory.hpp:77] Creating layer latent
I0220 00:38:29.758404 31843 net.cpp:84] Creating Layer latent
I0220 00:38:29.758412 31843 net.cpp:406] latent <- fc7
I0220 00:38:29.758419 31843 net.cpp:380] latent -> latent
I0220 00:38:29.764950 31843 net.cpp:122] Setting up latent
I0220 00:38:29.764963 31843 net.cpp:129] Top shape: 10 48 (480)
I0220 00:38:29.764967 31843 net.cpp:137] Memory required for data: 68603480
I0220 00:38:29.764976 31843 layer_factory.hpp:77] Creating layer latent_sigmoid
I0220 00:38:29.764982 31843 net.cpp:84] Creating Layer latent_sigmoid
I0220 00:38:29.764987 31843 net.cpp:406] latent_sigmoid <- latent
I0220 00:38:29.764993 31843 net.cpp:380] latent_sigmoid -> latent_sigmoid
I0220 00:38:29.765015 31843 net.cpp:122] Setting up latent_sigmoid
I0220 00:38:29.765022 31843 net.cpp:129] Top shape: 10 48 (480)
I0220 00:38:29.765027 31843 net.cpp:137] Memory required for data: 68605400
I0220 00:38:29.765031 31843 layer_factory.hpp:77] Creating layer fc9
I0220 00:38:29.765038 31843 net.cpp:84] Creating Layer fc9
I0220 00:38:29.765043 31843 net.cpp:406] fc9 <- latent_sigmoid
I0220 00:38:29.765049 31843 net.cpp:380] fc9 -> fc9
I0220 00:38:29.765144 31843 net.cpp:122] Setting up fc9
I0220 00:38:29.765152 31843 net.cpp:129] Top shape: 10 4 (40)
I0220 00:38:29.765157 31843 net.cpp:137] Memory required for data: 68605560
I0220 00:38:29.765167 31843 layer_factory.hpp:77] Creating layer loss
I0220 00:38:29.765183 31843 net.cpp:84] Creating Layer loss
I0220 00:38:29.765192 31843 net.cpp:406] loss <- fc9
I0220 00:38:29.765197 31843 net.cpp:406] loss <- label
I0220 00:38:29.765205 31843 net.cpp:380] loss -> loss: multi-class-classfication-error
…
I0220 00:38:29.766484 31843 net.cpp:294] The NetState phase (1) differed from the phase (0) specified by a rule in layer data
I0220 00:38:29.766680 31843 net.cpp:51] Initializing net from parameters: 
name: "multi-class-alexnet"
state {
  phase: TEST
}
layer {
  name: "data"
  type: "ImageData"
  top: "data"
  top: "label"
  include {
    phase: TEST
  }
  transform_param {
    mirror: false
    crop_size: 227
    mean_file: "../../data/ilsvrc12/imagenet_mean.binaryproto"
  }
  image_data_param {
    source: "file-list.txt"
    batch_size: 10
    new_height: 256
    new_width: 256
    label_size: 4
  }
}
layer {
  name: "conv1"
  type: "Convolution"
  bottom: "data"
  top: "conv1"
  param {
    lr_mult: 1
    decay_mult: 1
  }
  param {
    lr_mult: 2
    decay_mult: 0
  }
  convolution_param {
    num_output: 96
    kernel_size: 11
    stride: 4
    weight_filler {
      type: "gaussian"
      std: 0.01
    }
    bias_filler {
      type: "constant"
      value: 0
    }
  }
}
layer {
  name: "relu1"
  type: "ReLU"
  bottom: "conv1"
  top: "conv1"
}
layer {
  name: "pool1"
  type: "Pooling"
  bottom: "conv1"
  top: "pool1"
  pooling_param {
    pool: MAX
    kernel_size: 3
    stride: 2
  }
}
layer {
  name: "norm1"
  type: "LRN"
  bottom: "pool1"
  top: "norm1"
  lrn_param {
    local_size: 5
    alpha: 0.0001
    beta: 0.75
  }
}
layer {
  name: "conv2"
  type: "Convolution"
  bottom: "norm1"
  top: "conv2"
  param {
    lr_mult: 1
    decay_mult: 1
  }
  param {
    lr_mult: 2
    decay_mult: 0
  }
  convolution_param {
    num_output: 256
    pad: 2
    kernel_size: 5
    group: 2
    weight_filler {
      type: "gaussian"
      std: 0.01
    }
    bias_filler {
      type: "constant"
      value: 1
    }
  }
}
layer {
  name: "relu2"
  type: "ReLU"
  bottom: "conv2"
  top: "conv2"
}
layer {
  name: "pool2"
  type: "Pooling"
  bottom: "conv2"
  top: "pool2"
  pooling_param {
    pool: MAX
    kernel_size: 3
    stride: 2
  }
}
layer {
  name: "norm2"
  type: "LRN"
  bottom: "pool2"
  top: "norm2"
  lrn_param {
    local_size: 5
    alpha: 0.0001
    beta: 0.75
  }
}
layer {
  name: "conv3"
  type: "Convolution"
  bottom: "norm2"
  top: "conv3"
  param {
    lr_mult: 1
    decay_mult: 1
  }
  param {
    lr_mult: 2
    decay_mult: 0
  }
  convolution_param {
    num_output: 384
    pad: 1
    kernel_size: 3
    weight_filler {
      type: "gaussian"
      std: 0.01
    }
    bias_filler {
      type: "constant"
      value: 0
    }
  }
}
layer {
  name: "relu3"
  type: "ReLU"
  bottom: "conv3"
  top: "conv3"
}
layer {
  name: "conv4"
  type: "Convolution"
  bottom: "conv3"
  top: "conv4"
  param {
    lr_mult: 1
    decay_mult: 1
  }
  param {
    lr_mult: 2
    decay_mult: 0
  }
  convolution_param {
    num_output: 384
    pad: 1
    kernel_size: 3
    group: 2
    weight_filler {
      type: "gaussian"
      std: 0.01
    }
    bias_filler {
      type: "constant"
      value: 1
    }
  }
}
layer {
  name: "relu4"
  type: "ReLU"
  bottom: "conv4"
  top: "conv4"
}
layer {
  name: "conv5"
  type: "Convolution"
  bottom: "conv4"
  top: "conv5"
  param {
    lr_mult: 1
    decay_mult: 1
  }
  param {
    lr_mult: 2
    decay_mult: 0
  }
  convolution_param {
    num_output: 256
    pad: 1
    kernel_size: 3
    group: 2
    weight_filler {
      type: "gaussian"
      std: 0.01
    }
    bias_filler {
      type: "constant"
      value: 1
    }
  }
}
layer {
  name: "relu5"
  type: "ReLU"
  bottom: "conv5"
  top: "conv5"
}
layer {
  name: "pool5"
  type: "Pooling"
  bottom: "conv5"
  top: "pool5"
  pooling_param {
    pool: MAX
    kernel_size: 3
    stride: 2
  }
}
layer {
  name: "fc6"
  type: "InnerProduct"
  bottom: "pool5"
  top: "fc6"
  param {
    lr_mult: 1
    decay_mult: 1
  }
  param {
    lr_mult: 2
    decay_mult: 0
  }
  inner_product_param {
    num_output: 4096
    weight_filler {
      type: "gaussian"
      std: 0.005
    }
    bias_filler {
      type: "constant"
      value: 1
    }
  }
}
layer {
  name: "relu6"
  type: "ReLU"
  bottom: "fc6"
  top: "fc6"
}
layer {
  name: "drop6"
  type: "Dropout"
  bottom: "fc6"
  top: "fc6"
  dropout_param {
    dropout_ratio: 0.5
  }
}
layer {
  name: "fc7"
  type: "InnerProduct"
  bottom: "fc6"
  top: "fc7"
  param {
    lr_mult: 1
    decay_mult: 1
  }
  param {
    lr_mult: 2
    decay_mult: 0
  }
  inner_product_param {
    num_output: 4096
    weight_filler {
      type: "gaussian"
      std: 0.005
    }
    bias_filler {
      type: "constant"
      value: 1
    }
  }
}
layer {
  name: "relu7"
  type: "ReLU"
  bottom: "fc7"
  top: "fc7"
}
layer {
  name: "drop7"
  type: "Dropout"
  bottom: "fc7"
  top: "fc7"
  dropout_param {
    dropout_ratio: 0.5
  }
}
layer {
  name: "latent"
  type: "InnerProduct"
  bottom: "fc7"
  top: "latent"
  param {
    lr_mult: 1
    decay_mult: 1
  }
  param {
    lr_mult: 2
    decay_mult: 0
  }
  inner_product_param {
    num_output: 48
    weight_filler {
      type: "gaussian"
      std: 0.01
    }
    bias_filler {
      type: "constant"
      value: 0
    }
  }
}
layer {
  name: "latent_sigmoid"
  type: "Sigmoid"
  bottom: "latent"
  top: "latent_sigmoid"
}
layer {
  name: "fc9"
  type: "InnerProduct"
  bottom: "latent_sigmoid"
  top: "fc9"
  param {
    lr_mult: 10
    decay_mult: 1
  }
  param {
    lr_mult: 20
    decay_mult: 0
  }
  inner_product_param {
    num_output: 4
    weight_filler {
      type: "gaussian"
      std: 0.2
    }
    bias_filler {
      type: "constant"
      value: 0
    }
  }
}
layer {
  name: "accuracy"
  type: "MultiLabelAccuracy"
  bottom: "fc9"
  bottom: "label"
  top: "accuracy"
  include {
    phase: TEST
  }
}
layer {
  name: "loss"
  type: "MultiLabelSigmoidLoss"
  bottom: "fc9"
  bottom: "label"
  top: "loss: multi-class-classfication-error"
  loss_weight: 1
}
I0220 00:38:29.766805 31843 layer_factory.hpp:77] Creating layer data
I0220 00:38:29.766820 31843 net.cpp:84] Creating Layer data
I0220 00:38:29.766826 31843 net.cpp:380] data -> data
I0220 00:38:29.766835 31843 net.cpp:380] data -> label
I0220 00:38:29.766844 31843 data_transformer.cpp:25] Loading mean file from: ../../data/ilsvrc12/imagenet_mean.binaryproto
I0220 00:38:29.768365 31843 image_data_layer.cpp:43] Opening file file-list.txt
I0220 00:38:29.768378 31843 io.cpp:296] Opening file file-list.txt
I0220 00:38:29.768450 31843 io.cpp:321] Read 30 images with 4 labels
I0220 00:38:29.768460 31843 image_data_layer.cpp:71] A total of 30 images.
I0220 00:38:29.768754 31843 image_data_layer.cpp:98] output data size: 10,3,227,227
I0220 00:38:29.780643 31843 net.cpp:122] Setting up data
I0220 00:38:29.780670 31843 net.cpp:129] Top shape: 10 3 227 227 (1545870)
I0220 00:38:29.780678 31843 net.cpp:129] Top shape: 10 4 1 1 (40)
I0220 00:38:29.780683 31843 net.cpp:137] Memory required for data: 6183640
I0220 00:38:29.780689 31843 layer_factory.hpp:77] Creating layer label_data_1_split
I0220 00:38:29.780701 31843 net.cpp:84] Creating Layer label_data_1_split
I0220 00:38:29.780707 31843 net.cpp:406] label_data_1_split <- label
I0220 00:38:29.780714 31843 net.cpp:380] label_data_1_split -> label_data_1_split_0
I0220 00:38:29.780725 31843 net.cpp:380] label_data_1_split -> label_data_1_split_1
I0220 00:38:29.780809 31843 net.cpp:122] Setting up label_data_1_split
I0220 00:38:29.780819 31843 net.cpp:129] Top shape: 10 4 1 1 (40)
I0220 00:38:29.780825 31843 net.cpp:129] Top shape: 10 4 1 1 (40)
I0220 00:38:29.780828 31843 net.cpp:137] Memory required for data: 6183960
I0220 00:38:29.780853 31843 layer_factory.hpp:77] Creating layer conv1
I0220 00:38:29.780866 31843 net.cpp:84] Creating Layer conv1
I0220 00:38:29.780870 31843 net.cpp:406] conv1 <- data
I0220 00:38:29.780877 31843 net.cpp:380] conv1 -> conv1
I0220 00:38:29.782251 31843 net.cpp:122] Setting up conv1
I0220 00:38:29.782263 31843 net.cpp:129] Top shape: 10 96 55 55 (2904000)
I0220 00:38:29.782266 31843 net.cpp:137] Memory required for data: 17799960
I0220 00:38:29.782277 31843 layer_factory.hpp:77] Creating layer relu1
I0220 00:38:29.782285 31843 net.cpp:84] Creating Layer relu1
I0220 00:38:29.782290 31843 net.cpp:406] relu1 <- conv1
I0220 00:38:29.782296 31843 net.cpp:367] relu1 -> conv1 (in-place)
I0220 00:38:29.782304 31843 net.cpp:122] Setting up relu1
I0220 00:38:29.782311 31843 net.cpp:129] Top shape: 10 96 55 55 (2904000)
I0220 00:38:29.782315 31843 net.cpp:137] Memory required for data: 29415960
I0220 00:38:29.782320 31843 layer_factory.hpp:77] Creating layer pool1
I0220 00:38:29.782328 31843 net.cpp:84] Creating Layer pool1
I0220 00:38:29.782335 31843 net.cpp:406] pool1 <- conv1
I0220 00:38:29.782341 31843 net.cpp:380] pool1 -> pool1
I0220 00:38:29.782374 31843 net.cpp:122] Setting up pool1
I0220 00:38:29.782382 31843 net.cpp:129] Top shape: 10 96 27 27 (699840)
I0220 00:38:29.782387 31843 net.cpp:137] Memory required for data: 32215320
I0220 00:38:29.782392 31843 layer_factory.hpp:77] Creating layer norm1
I0220 00:38:29.782398 31843 net.cpp:84] Creating Layer norm1
I0220 00:38:29.782405 31843 net.cpp:406] norm1 <- pool1
I0220 00:38:29.782410 31843 net.cpp:380] norm1 -> norm1
I0220 00:38:29.782440 31843 net.cpp:122] Setting up norm1
I0220 00:38:29.782449 31843 net.cpp:129] Top shape: 10 96 27 27 (699840)
I0220 00:38:29.782452 31843 net.cpp:137] Memory required for data: 35014680
I0220 00:38:29.782456 31843 layer_factory.hpp:77] Creating layer conv2
I0220 00:38:29.782465 31843 net.cpp:84] Creating Layer conv2
I0220 00:38:29.782471 31843 net.cpp:406] conv2 <- norm1
I0220 00:38:29.782477 31843 net.cpp:380] conv2 -> conv2
I0220 00:38:29.792596 31843 net.cpp:122] Setting up conv2
I0220 00:38:29.792618 31843 net.cpp:129] Top shape: 10 256 27 27 (1866240)
I0220 00:38:29.792623 31843 net.cpp:137] Memory required for data: 42479640
I0220 00:38:29.792636 31843 layer_factory.hpp:77] Creating layer relu2
I0220 00:38:29.792646 31843 net.cpp:84] Creating Layer relu2
I0220 00:38:29.792651 31843 net.cpp:406] relu2 <- conv2
I0220 00:38:29.792659 31843 net.cpp:367] relu2 -> conv2 (in-place)
I0220 00:38:29.792666 31843 net.cpp:122] Setting up relu2
I0220 00:38:29.792677 31843 net.cpp:129] Top shape: 10 256 27 27 (1866240)
I0220 00:38:29.792682 31843 net.cpp:137] Memory required for data: 49944600
I0220 00:38:29.792686 31843 layer_factory.hpp:77] Creating layer pool2
I0220 00:38:29.792695 31843 net.cpp:84] Creating Layer pool2
I0220 00:38:29.792724 31843 net.cpp:406] pool2 <- conv2
I0220 00:38:29.792742 31843 net.cpp:380] pool2 -> pool2
I0220 00:38:29.792799 31843 net.cpp:122] Setting up pool2
I0220 00:38:29.792810 31843 net.cpp:129] Top shape: 10 256 13 13 (432640)
I0220 00:38:29.792814 31843 net.cpp:137] Memory required for data: 51675160
I0220 00:38:29.792819 31843 layer_factory.hpp:77] Creating layer norm2
I0220 00:38:29.792826 31843 net.cpp:84] Creating Layer norm2
I0220 00:38:29.792845 31843 net.cpp:406] norm2 <- pool2
I0220 00:38:29.792862 31843 net.cpp:380] norm2 -> norm2
I0220 00:38:29.792907 31843 net.cpp:122] Setting up norm2
I0220 00:38:29.792917 31843 net.cpp:129] Top shape: 10 256 13 13 (432640)
I0220 00:38:29.792922 31843 net.cpp:137] Memory required for data: 53405720
I0220 00:38:29.792925 31843 layer_factory.hpp:77] Creating layer conv3
I0220 00:38:29.792937 31843 net.cpp:84] Creating Layer conv3
I0220 00:38:29.792954 31843 net.cpp:406] conv3 <- norm2
I0220 00:38:29.792971 31843 net.cpp:380] conv3 -> conv3
I0220 00:38:29.821424 31843 net.cpp:122] Setting up conv3
I0220 00:38:29.821446 31843 net.cpp:129] Top shape: 10 384 13 13 (648960)
I0220 00:38:29.821451 31843 net.cpp:137] Memory required for data: 56001560
I0220 00:38:29.821482 31843 layer_factory.hpp:77] Creating layer relu3
I0220 00:38:29.821497 31843 net.cpp:84] Creating Layer relu3
I0220 00:38:29.821506 31843 net.cpp:406] relu3 <- conv3
I0220 00:38:29.821512 31843 net.cpp:367] relu3 -> conv3 (in-place)
I0220 00:38:29.821524 31843 net.cpp:122] Setting up relu3
I0220 00:38:29.821532 31843 net.cpp:129] Top shape: 10 384 13 13 (648960)
I0220 00:38:29.821535 31843 net.cpp:137] Memory required for data: 58597400
I0220 00:38:29.821539 31843 layer_factory.hpp:77] Creating layer conv4
I0220 00:38:29.821550 31843 net.cpp:84] Creating Layer conv4
I0220 00:38:29.821576 31843 net.cpp:406] conv4 <- conv3
I0220 00:38:29.821589 31843 net.cpp:380] conv4 -> conv4
I0220 00:38:29.843024 31843 net.cpp:122] Setting up conv4
I0220 00:38:29.843047 31843 net.cpp:129] Top shape: 10 384 13 13 (648960)
I0220 00:38:29.843052 31843 net.cpp:137] Memory required for data: 61193240
I0220 00:38:29.843061 31843 layer_factory.hpp:77] Creating layer relu4
I0220 00:38:29.843072 31843 net.cpp:84] Creating Layer relu4
I0220 00:38:29.843077 31843 net.cpp:406] relu4 <- conv4
I0220 00:38:29.843087 31843 net.cpp:367] relu4 -> conv4 (in-place)
I0220 00:38:29.843096 31843 net.cpp:122] Setting up relu4
I0220 00:38:29.843102 31843 net.cpp:129] Top shape: 10 384 13 13 (648960)
I0220 00:38:29.843106 31843 net.cpp:137] Memory required for data: 63789080
I0220 00:38:29.843111 31843 layer_factory.hpp:77] Creating layer conv5
I0220 00:38:29.843121 31843 net.cpp:84] Creating Layer conv5
I0220 00:38:29.843125 31843 net.cpp:406] conv5 <- conv4
I0220 00:38:29.843132 31843 net.cpp:380] conv5 -> conv5
I0220 00:38:29.857528 31843 net.cpp:122] Setting up conv5
I0220 00:38:29.857550 31843 net.cpp:129] Top shape: 10 256 13 13 (432640)
I0220 00:38:29.857555 31843 net.cpp:137] Memory required for data: 65519640
I0220 00:38:29.857568 31843 layer_factory.hpp:77] Creating layer relu5
I0220 00:38:29.857578 31843 net.cpp:84] Creating Layer relu5
I0220 00:38:29.857585 31843 net.cpp:406] relu5 <- conv5
I0220 00:38:29.857591 31843 net.cpp:367] relu5 -> conv5 (in-place)
I0220 00:38:29.857600 31843 net.cpp:122] Setting up relu5
I0220 00:38:29.857605 31843 net.cpp:129] Top shape: 10 256 13 13 (432640)
I0220 00:38:29.857610 31843 net.cpp:137] Memory required for data: 67250200
I0220 00:38:29.857614 31843 layer_factory.hpp:77] Creating layer pool5
I0220 00:38:29.857623 31843 net.cpp:84] Creating Layer pool5
I0220 00:38:29.857627 31843 net.cpp:406] pool5 <- conv5
I0220 00:38:29.857633 31843 net.cpp:380] pool5 -> pool5
I0220 00:38:29.857709 31843 net.cpp:122] Setting up pool5
I0220 00:38:29.857719 31843 net.cpp:129] Top shape: 10 256 6 6 (92160)
I0220 00:38:29.857723 31843 net.cpp:137] Memory required for data: 67618840
I0220 00:38:29.857728 31843 layer_factory.hpp:77] Creating layer fc6
I0220 00:38:29.857738 31843 net.cpp:84] Creating Layer fc6
I0220 00:38:29.857741 31843 net.cpp:406] fc6 <- pool5
I0220 00:38:29.857748 31843 net.cpp:380] fc6 -> fc6
I0220 00:38:31.053913 31843 net.cpp:122] Setting up fc6
I0220 00:38:31.053972 31843 net.cpp:129] Top shape: 10 4096 (40960)
I0220 00:38:31.053989 31843 net.cpp:137] Memory required for data: 67782680
I0220 00:38:31.054009 31843 layer_factory.hpp:77] Creating layer relu6
I0220 00:38:31.054029 31843 net.cpp:84] Creating Layer relu6
I0220 00:38:31.054044 31843 net.cpp:406] relu6 <- fc6
I0220 00:38:31.054060 31843 net.cpp:367] relu6 -> fc6 (in-place)
I0220 00:38:31.054081 31843 net.cpp:122] Setting up relu6
I0220 00:38:31.054096 31843 net.cpp:129] Top shape: 10 4096 (40960)
I0220 00:38:31.054103 31843 net.cpp:137] Memory required for data: 67946520
I0220 00:38:31.054108 31843 layer_factory.hpp:77] Creating layer drop6
I0220 00:38:31.054117 31843 net.cpp:84] Creating Layer drop6
I0220 00:38:31.054121 31843 net.cpp:406] drop6 <- fc6
I0220 00:38:31.054127 31843 net.cpp:367] drop6 -> fc6 (in-place)
I0220 00:38:31.054157 31843 net.cpp:122] Setting up drop6
I0220 00:38:31.054165 31843 net.cpp:129] Top shape: 10 4096 (40960)
I0220 00:38:31.054169 31843 net.cpp:137] Memory required for data: 68110360
I0220 00:38:31.054188 31843 layer_factory.hpp:77] Creating layer fc7
I0220 00:38:31.054196 31843 net.cpp:84] Creating Layer fc7
I0220 00:38:31.054217 31843 net.cpp:406] fc7 <- fc6
I0220 00:38:31.054227 31843 net.cpp:380] fc7 -> fc7
I0220 00:38:31.585536 31843 net.cpp:122] Setting up fc7
I0220 00:38:31.585563 31843 net.cpp:129] Top shape: 10 4096 (40960)
I0220 00:38:31.585568 31843 net.cpp:137] Memory required for data: 68274200
I0220 00:38:31.585578 31843 layer_factory.hpp:77] Creating layer relu7
I0220 00:38:31.585589 31843 net.cpp:84] Creating Layer relu7
I0220 00:38:31.585595 31843 net.cpp:406] relu7 <- fc7
I0220 00:38:31.585603 31843 net.cpp:367] relu7 -> fc7 (in-place)
I0220 00:38:31.585613 31843 net.cpp:122] Setting up relu7
I0220 00:38:31.585618 31843 net.cpp:129] Top shape: 10 4096 (40960)
I0220 00:38:31.585623 31843 net.cpp:137] Memory required for data: 68438040
I0220 00:38:31.585626 31843 layer_factory.hpp:77] Creating layer drop7
I0220 00:38:31.585634 31843 net.cpp:84] Creating Layer drop7
I0220 00:38:31.585638 31843 net.cpp:406] drop7 <- fc7
I0220 00:38:31.585644 31843 net.cpp:367] drop7 -> fc7 (in-place)
I0220 00:38:31.585669 31843 net.cpp:122] Setting up drop7
I0220 00:38:31.585677 31843 net.cpp:129] Top shape: 10 4096 (40960)
I0220 00:38:31.585681 31843 net.cpp:137] Memory required for data: 68601880
I0220 00:38:31.585685 31843 layer_factory.hpp:77] Creating layer latent
I0220 00:38:31.585695 31843 net.cpp:84] Creating Layer latent
I0220 00:38:31.585722 31843 net.cpp:406] latent <- fc7
I0220 00:38:31.585732 31843 net.cpp:380] latent -> latent
I0220 00:38:31.592288 31843 net.cpp:122] Setting up latent
I0220 00:38:31.592303 31843 net.cpp:129] Top shape: 10 48 (480)
I0220 00:38:31.592308 31843 net.cpp:137] Memory required for data: 68603800
I0220 00:38:31.592315 31843 layer_factory.hpp:77] Creating layer latent_sigmoid
I0220 00:38:31.592324 31843 net.cpp:84] Creating Layer latent_sigmoid
I0220 00:38:31.592327 31843 net.cpp:406] latent_sigmoid <- latent
I0220 00:38:31.592334 31843 net.cpp:380] latent_sigmoid -> latent_sigmoid
I0220 00:38:31.592356 31843 net.cpp:122] Setting up latent_sigmoid
I0220 00:38:31.592362 31843 net.cpp:129] Top shape: 10 48 (480)
I0220 00:38:31.592372 31843 net.cpp:137] Memory required for data: 68605720
I0220 00:38:31.592377 31843 layer_factory.hpp:77] Creating layer fc9
I0220 00:38:31.592386 31843 net.cpp:84] Creating Layer fc9
I0220 00:38:31.592389 31843 net.cpp:406] fc9 <- latent_sigmoid
I0220 00:38:31.592396 31843 net.cpp:380] fc9 -> fc9
I0220 00:38:31.592490 31843 net.cpp:122] Setting up fc9
I0220 00:38:31.592499 31843 net.cpp:129] Top shape: 10 4 (40)
I0220 00:38:31.592504 31843 net.cpp:137] Memory required for data: 68605880
I0220 00:38:31.592514 31843 layer_factory.hpp:77] Creating layer fc9_fc9_0_split
I0220 00:38:31.592524 31843 net.cpp:84] Creating Layer fc9_fc9_0_split
I0220 00:38:31.592528 31843 net.cpp:406] fc9_fc9_0_split <- fc9
I0220 00:38:31.592535 31843 net.cpp:380] fc9_fc9_0_split -> fc9_fc9_0_split_0
I0220 00:38:31.592541 31843 net.cpp:380] fc9_fc9_0_split -> fc9_fc9_0_split_1
I0220 00:38:31.592572 31843 net.cpp:122] Setting up fc9_fc9_0_split
I0220 00:38:31.592581 31843 net.cpp:129] Top shape: 10 4 (40)
I0220 00:38:31.592586 31843 net.cpp:129] Top shape: 10 4 (40)
I0220 00:38:31.592589 31843 net.cpp:137] Memory required for data: 68606200
I0220 00:38:31.592593 31843 layer_factory.hpp:77] Creating layer accuracy
I0220 00:38:31.592602 31843 net.cpp:84] Creating Layer accuracy
I0220 00:38:31.592605 31843 net.cpp:406] accuracy <- fc9_fc9_0_split_0
I0220 00:38:31.592610 31843 net.cpp:406] accuracy <- label_data_1_split_0
I0220 00:38:31.592617 31843 net.cpp:380] accuracy -> accuracy
I0220 00:38:31.592638 31843 net.cpp:122] Setting up accuracy
I0220 00:38:31.592645 31843 net.cpp:129] Top shape: 1 5 1 1 (5)
I0220 00:38:31.592649 31843 net.cpp:137] Memory required for data: 68606220
I0220 00:38:31.592653 31843 layer_factory.hpp:77] Creating layer loss
I0220 00:38:31.592661 31843 net.cpp:84] Creating Layer loss
I0220 00:38:31.592665 31843 net.cpp:406] loss <- fc9_fc9_0_split_1
I0220 00:38:31.592684 31843 net.cpp:406] loss <- label_data_1_split_1
I0220 00:38:31.592690 31843 net.cpp:380] loss -> loss: multi-class-classfication-error
…
